EdgeFool-1/Train/checkpoints/snapshots/resnet50_latest.pth (torch_old, 116346 bytes, 32 tensors)

lr.0.weight f4 [24, 3, 3, 3]
000000 24 7f f7 bb bd f2 17 bc d1 f2 35 bc 3c b7 9e bb
       -0.007552998 -0.009274182 -0.011105255 -0.0048436206
000010 23 d8 7e 3f 95 62 ca bb 88 9a b8 bb bc 6f 7c bb
       0.9954855 -0.0061763027 -0.005633656 -0.0038518747
000020 23 34 88 bb 9d 49 8c bc 2b f2 96 bc 1f 79 a1 bc
       -0.004156606 -0.017124945 -0.018426022 -0.019711075
000030 a7 c6 67 bc dd b3 6a bc 0a 2b 80 bc 11 85 65 bc
       -0.0141464835 -0.014325109 -0.015645523 -0.014008776
000040 94 3b 4e bc 3f 26 4b bc 48 1c 9c bc 92 b3 a6 bc
       -0.012587447 -0.012399255 -0.019056454 -0.020349298
000050 58 e2 ae bc 71 c4 84 bc bb e8 84 bc 24 db 8c bc
       -0.021348163 -0.016206952 -0.016224256 -0.017194338
000060 7b ef 87 bc 01 4e 7c bc a9 fe 6f bc 65 8b 15 3c
       -0.016593685 -0.015399457 -0.014648118 0.0091274725
000070 a3 37 d7 3b 08 74 a4 3b b0 64 b5 3b 6d 44 49 3a
       0.0065679117 0.005018715 0.0055356845 0.0007677738
000080 c3 08 13 3c dd 61 f0 3b ba 18 1c 3c bd 4f 65 3c
       0.008974257 0.007335885 0.00952738 0.013996062
000090 0e 94 7e bc 99 f4 94 bc 06 39 90 bc a6 a0 bd bc
       -0.015538229 -0.01818304 -0.017605316 -0.023147892
0000a0 45 85 78 3f f4 39 8f bc 70 5a a1 bc 31 b9 95 bc
       0.97078353 -0.017483689 -0.019696444 -0.018276783
0000b0 65 6a 2e bc 66 9f 2f bc 9f d5 6a bc 4e 38 77 bc
       -0.010645484 -0.010719156 -0.014333158 -0.015089108
0000c0 04 80 8c bc e5 de c8 bc b9 10 61 bc 7e 2e 66 bc
       -0.017150886 -0.024520347 -0.013736897 -0.014049171
0000d0 30 83 6d bc d6 a6 ff bb 80 17 dd bb c7 ba e2 bb
       -0.01449661 -0.007801871 -0.006747186 -0.0069192383
0000e0 4d ee 1e bc 00 04 d3 bb 9e 79 8a bb 21 66 0a bc
       -0.00970037 -0.006439686 -0.0042259237 -0.008447201
0000f0 ab 45 ef bb f3 fc b6 bb d5 1f 0e bc 1c ac 78 ba
       -0.0073020062 -0.005584353 -0.008674582 -0.00094860955
000100 b5 23 8f ba 37 5f 8b bb 9b 5c 95 ba 31 fe 7c 39
       -0.0010920676 -0.004253294 -0.0011395396 0.00024127286
000110 73 de ab bb 2a 8f 50 bb 3d f6 1e bb 63 ee bb bb
       -0.005245024 -0.0031823614 -0.0024255656 -0.005735205
000120 81 01 ce b9 21 5c ea ba ce 21 d4 bb 3f e2 62 b8
       -0.00039292502 -0.001788024 -0.0064737564 -5.4093307e-05
000130 87 0e 80 3f 36 d1 c1 bb 2b eb 4e bb 88 34 5d bb
       1.0004433 -0.0059148325 -0.0031573277 -0.0033753235
000140 af 71 ec bb 54 69 6a 3d 3e 05 b3 3c c8 36 5b 3c
       -0.0072157006 0.057229355 0.021853086 0.01337976
000150 11 2f 05 3c d1 d9 5a bd c6 45 a1 bc d1 a6 89 bb
       0.008128897 -0.053430382 -0.01968659 -0.0042007943
000160 c8 14 bb bc d5 09 78 bc 8a 05 7f 3d 7e 6c e4 3c
       -0.022837058 -0.015139063 0.06226114 0.027883764
000170 d0 15 55 3c fd 21 a0 3b 4a 38 7e bd a4 5a d3 bc
       0.013005689 0.004886864 -0.0620654 -0.025800057
000180 6c f8 28 bc 4b c6 dc bc 09 2f 69 bc e4 46 73 3d
       -0.010313135 -0.026950022 -0.014232405 0.05939378
000190 3f a8 08 3d 4c bd b8 3c 24 1b 9b 3b c8 48 7d bd
       0.033363577 0.022551201 0.00473346 -0.061836988
0001a0 e6 88 d8 bc 7f 33 3e bc 3d 62 e2 bc d9 5e 0f bc
       -0.026432466 -0.011608957 -0.027634734 -0.008750641
0001b0 00 76 43 3c af e1 70 3c bf fa f0 3c 65 05 b9 3c
       0.011929989 0.014702245 0.02941644 0.02258558
0001c0 b1 15 af bb 46 48 5a bc 48 f0 1b 3d fc 83 fd 3c
       -0.005343162 -0.013322895 0.038070947 0.030946724
0001d0 10 6b 65 ba 9b 9e 83 bc af eb 97 bc 95 d9 ab 3b
       -0.00087516103 -0.01606684 -0.018545 0.0052444437
0001e0 05 e2 9d 3b 06 c2 13 bd ea d7 44 bd aa 66 fd 3c
       0.0048182034 -0.036073707 -0.048057474 0.030932743
0001f0 6c b3 a7 3c e5 3e b4 bc 55 32 0a bd eb da 07 bd
       0.020471297 -0.022002647 -0.033739407 -0.03316776
000200 e9 7d 6f 3b 4f a6 31 bb 63 c1 1b bd 86 c7 1e bd
       0.0036543554 -0.0027107184 -0.038026225 -0.0387645
000210 5e ce ea 3c 35 4a cd 3c 08 07 82 bb b2 ea 23 3a
       0.028662857 0.025059799 -0.0039681233 0.0006252929
000220 37 7e 28 3b 6a 90 af 3a 3c ea c5 b9 ae af 88 3a
       0.0025709996 0.0013394479 -0.00037749286 0.0010428333
000230 27 87 79 3a a1 ff 21 ba 2e 1d 25 3a 42 d6 b2 3a
       0.00095187355 -0.0006179754 0.00062985986 0.0013644176
000240 3c dd 2a bb 31 bd 11 bb 13 3a a6 bb c4 a2 cc ba
       -0.0026071807 -0.002223801 -0.005072841 -0.0015612473
000250 3e 4d a5 ba 70 20 4d bb 6f 33 26 bb e6 57 0c bb
       -0.0012611521 -0.0031299852 -0.0025360247 -0.0021414696
000260 1f 9e 3c bb 71 ba 45 b9 1e 9d d9 b9 3f ba 82 bb
       -0.002878077 -0.00018856839 -0.00041506527 -0.0039894874
000270 60 64 4f 3b c3 17 54 3b 14 ff 36 3a 64 f2 12 3b
       0.0031645522 0.0032362796 0.00069807586 0.0022422308
000280 87 fd 31 3b 39 22 a5 3a 0d 08 35 3c c0 15 51 3b
       0.002715917 0.00125987 0.011049283 0.0031903833
000290 13 e6 8f 3b d7 e5 60 3b 7e 7d 19 bc 27 f4 ca bb
       0.0043914407 0.0034316683 -0.009368299 -0.006193656
0002a0 d3 d8 71 3c 0e 5d 12 3c 79 27 0f 3c b9 dd e0 3b
       0.014761168 0.008933319 0.008737438 0.006862369
0002b0 eb 9d d6 bb 1a a6 9e bb 9e a9 27 bc ea 9b d7 bc
       -0.006549587 -0.004841578 -0.010233311 -0.026319463
0002c0 bd ab b9 bc 0f b9 61 3b b4 91 d5 bb e6 61 97 bb
       -0.022664899 0.003444258 -0.0065176133 -0.0046198247
0002d0 ae 51 5f 3b ce b9 79 bc 94 5a 50 bc bd 86 7f bc
       0.0034075784 -0.015242053 -0.012716908 -0.015596089
0002e0 99 66 0e bd 56 3e e7 bc a6 0e 13 ba 52 78 50 bc
       -0.034765813 -0.028227966 -0.0005609788 -0.012723999
0002f0 46 4b 13 bc 9c a3 85 3b 0c f8 c4 3b 3d b0 26 3c
       -0.008990115 0.0040783416 0.006011015 0.010173854
000300 f0 e4 dc 3b ff ce 7a 3b f9 a5 06 3c ee 8e 0d 3c
       0.0067411587 0.0038270352 0.008218282 0.008640034
000310 8c 9e 69 3c ad ab 5b 3c d5 d7 6d bc 46 83 61 bc
       0.014258992 0.01340763 -0.01451679 -0.013764208
000320 7b 2c ce bb d0 da a5 bc 7e 06 c5 bc a9 77 65 bc
       -0.0062919236 -0.02024594 -0.024050947 -0.01400558
000330 72 63 8b bc 4d 99 3c bc 13 23 fb bb 55 1d 8e 3b
       -0.017015193 -0.011511159 -0.0076640933 0.0043369927
000340 87 c2 5f 3b 4f 70 4e 3c c7 d9 89 bb 23 86 18 bc
       0.0034143047 0.012600019 -0.0042068693 -0.009309324
000350 f7 d3 a4 3b f1 09 2f bb 3e ca 28 3b 9e c6 24 3c
       0.005030151 -0.0026708806 0.0025755311 0.01005712
000360 de 3d 20 3b 10 e3 29 3b 41 57 ab 3b 3b 19 00 3b
       0.0024450938 0.0025922693 0.0052289073 0.0019546289
000370 b6 b8 1d 3b df 62 d7 3a 3c 94 5e 3a 45 f3 46 3a
       0.0024066395 0.0016432664 0.00084907166 0.00075893506
000380 c1 cc b0 3a 1d a9 65 3b 23 f3 20 3b 08 9b d6 3b
       0.0013488756 0.0035043426 0.0024558983 0.006549243
000390 56 65 ec 38 e2 5f b2 39 e5 1c 5d 38 b1 10 47 3b
       0.00011272232 0.00034022244 5.2717416e-05 0.003037494
0003a0 a0 ca 78 3a 09 de 20 3b a7 07 f7 bb 77 fc c3 bb
       0.00094906427 0.0024546406 -0.007538754 -0.005981024
0003b0 34 ee 8e 3a 3c fa ed bb 21 0a 92 bb 39 ea 9f ba
       0.001090473 -0.0072624963 -0.004456774 -0.0012200541
0003c0 49 d4 3c bb a9 db 27 bb b6 9e fa 3a 3a df 8e ba
       -0.0028813055 -0.0025613105 0.0019120786 -0.0010900267
0003d0 4b 14 92 3b 79 ac 1e 3c 4f 65 f7 39 38 c1 b0 bb
       0.0044579855 0.009684675 0.00047186992 -0.005394127
0003e0 eb 75 eb ba f1 e7 d9 3a 06 ba e9 ba 9c ff 9b bb
       -0.001796422 0.001662491 -0.0017831929 -0.0047606956
0003f0 ad fd 0d 39 82 a3 82 3a de 1a 98 3b 80 49 cd 3b
       0.0001354131 0.0009966942 0.0046418747 0.0062648654

lr.1.bn.weight f4 [24]
000000 26 7f 78 3f a7 5b 59 3f bd 69 6e 3f dc f1 90 3f
       0.97069013 0.84905475 0.93130094 1.132381
000010 50 dd 8f 3f 25 bd 88 3f bb 36 91 3f b0 e2 83 3f
       1.1239414 1.0682722 1.1344827 1.0303555
000020 23 74 86 3f d8 b7 83 3f 57 08 82 3f f3 0a 74 3f
       1.0504192 1.029048 1.0158795 0.9532921
000030 d1 9f 7c 3f 17 1b 7d 3f 1c 51 81 3f 9b 73 94 3f
       0.9868136 0.9886946 1.0102878 1.159778
000040 43 ae 8a 3f 3b 19 8a 3f d4 ed 85 3f b2 75 88 3f
       1.083443 1.078895 1.0463204 1.0660918
000050 7f 8c 81 3f ec 1f 93 3f bd 69 84 3f f6 f6 7c 3f
       1.0121001 1.1494117 1.0344769 0.9881433

lr.1.bn.bias f4 [24]
000000 bb e4 93 3c c9 d4 b2 3b e0 ce 53 3c 01 19 9c bb
       0.018053403 0.005457495 0.012927741 -0.004763723
000010 a7 91 97 3d 96 ca 90 3d 55 ee d9 3d b9 bb ce bc
       0.07400828 0.0706989 0.10641161 -0.025235998
000020 26 55 88 3d 3b 99 82 3c d7 9a 3d 3d d7 2e 95 3b
       0.06656866 0.015942207 0.046290245 0.004552703
000030 e7 c1 e5 3c c0 4e 36 3c 7e 82 52 3d b5 44 64 3d
       0.028046561 0.011127174 0.05139398 0.055729587
000040 bb 5c 87 3d 09 27 6a 3d bc 77 d7 3c 09 4d 16 3d
       0.06609484 0.057166133 0.026302211 0.03669456
000050 40 02 ad 3d fc f1 0d 3e 34 f6 24 3c b8 38 62 3c
       0.08447695 0.13861841 0.010068465 0.013807468

lr.1.bn.running_mean f4 [24]
000000 89 88 aa 3e cd 8a f7 3e 31 b1 33 3f 91 c4 2d bd
       0.33307293 0.48348084 0.7019225 -0.04242379
000010 69 72 51 bd 96 cc be bb 81 4e ff bd e2 35 d6 bc
       -0.0511345 -0.0058227284 -0.12466145 -0.02614874
000020 46 94 0b bb 98 bc 84 bc a1 b5 40 bd 63 7d 52 bb
       -0.0021298095 -0.01620321 -0.047048215 -0.0032118193
000030 f4 cd 87 bd 10 88 17 bd eb 9a 02 bd 03 7f ce bc
       -0.06631079 -0.036994994 -0.031886023 -0.025207048
000040 0f 7d 83 3b e2 2a ad bc ff 08 23 be b5 93 65 bc
       0.004012711 -0.021138612 -0.159214 -0.014012267
000050 cd 9e a2 3c 3d 99 6a bd a0 78 e5 bb 49 fb ec bc
       0.019851113 -0.057275046 -0.007002905 -0.028928416

lr.1.bn.running_var f4 [24]
000000 5e 2b 11 3c aa 57 82 3c b1 fd 1b 3d 64 f7 18 3a
       0.008860437 0.015910942 0.038083736 0.0005835204
000010 d0 1a d3 39 d0 5e 27 36 d6 3f 94 3a 6e 93 6e 38
       0.00040265033 2.4940127e-06 0.0011310528 5.6880926e-05
000020 4a 00 af 36 e4 3b e5 37 7d 16 38 39 fd 8e eb 35
       5.21544e-06 2.7326816e-05 0.00017555985 1.755048e-06
000030 0c 62 a9 39 03 96 14 39 84 18 a5 38 35 32 c4 39
       0.00032307243 0.00014170264 7.8723795e-05 0.0003742144
000040 95 ac bb 35 05 54 f8 37 17 50 d0 3a 1d e4 6a 39
       1.3982814e-06 2.9603028e-05 0.0015893009 0.00022400958
000050 a7 b9 6b 38 23 ac a8 39 09 4f 5b 39 e4 cb 93 38
       5.620127e-05 0.0003217171 0.0002091491 7.047484e-05

lr.3.weight f4 [24, 24, 3, 3]
000000 6c 1c 64 bc 49 70 5c bc 09 5e 92 bc 17 ff ff bb
       -0.013922792 -0.013454505 -0.017867105 -0.0078123915
000010 0a 2f 7e 3f a8 ac 02 bc 53 7e 12 bc 87 a3 63 bb
       0.99290526 -0.007975735 -0.008941251 -0.003473492
000020 47 50 21 bc d0 71 9e bc 6f dc 96 bc 3b e3 aa bc
       -0.0098458 -0.01934138 -0.018415658 -0.020860305
000030 5e df 34 bc e8 95 4d bc be ac 50 bc 81 84 42 bc
       -0.011039583 -0.0125479475 -0.012736497 -0.011872412
000040 3a f9 eb bb 80 dd 4d bc 7d 29 b2 bc 28 1e ab bc
       -0.007201341 -0.012565017 -0.021748299 -0.020888403
000050 78 e9 b7 bc ad 12 60 bc cb e9 7b bc 1e 25 69 bc
       -0.022450194 -0.013676328 -0.015375565 -0.014230041
000060 eb 02 60 bc 80 27 45 bc 2e 92 7b bc 94 5d 6d bc
       -0.013672571 -0.012033343 -0.015354676 -0.014487643
000070 dc 56 0f bb fc 89 18 bc 1a c5 9d bc 83 f1 71 bc
       -0.002187184 -0.009310242 -0.019259024 -0.014767054
000080 37 b3 d6 bc d2 53 0a bc a4 bc d4 bc 02 3f 51 bb
       -0.026208503 -0.008442836 -0.025968857 -0.0031928425
000090 55 57 a0 3b 17 04 c5 bb 44 fd 02 bc 66 48 72 3b
       0.0048932233 -0.0060124504 -0.007994954 0.0036969422
0000a0 2f 07 e7 ba 4a 14 58 bc 06 86 a5 bb 74 59 c1 bb
       -0.0017626042 -0.013188431 -0.005051377 -0.005900556
0000b0 e1 31 48 bc 83 67 bc b9 80 4d 47 3a 1d 2f 9e 39
       -0.012218923 -0.00035935277 0.0007602796 0.0003017121
0000c0 09 b8 b5 bb 65 8b a8 bb 00 45 25 bb ea 5b 0d bc
       -0.0055456203 -0.0051435702 -0.002521813 -0.008627871
0000d0 90 ef f9 bb 37 09 8a bb 71 eb a7 3c 01 68 a2 3c
       -0.007627435 -0.0042125243 0.02049801 0.019824984
0000e0 93 f9 a3 3c 69 de 67 3c ff 92 5e 3c b6 04 8b 3c
       0.020016467 0.014152148 0.013584851 0.01697002
0000f0 e3 3e 5b 3c ec 69 42 3c 5c 2b 99 3c a0 bf 5a 3c
       0.013381693 0.011866074 0.018697433 0.013351351
000100 51 ce 1e 3c e8 bb 22 3c 6f c8 09 3c cd e4 c7 3b
       0.009692744 0.009932496 0.0084096035 0.006100273
000110 46 f1 fb 3b f6 cb 8e 3b c6 84 34 3b e1 26 fd 3b
       0.007688674 0.00435781 0.002754496 0.007725582
000120 6a e5 60 3c f0 66 39 3c 1b 22 2d 3c 15 4d 04 3c
       0.013726572 0.011316046 0.010567213 0.008075018
000130 03 a5 b6 3b e7 4d 08 3c 36 6f b4 3b 87 65 98 3b
       0.00557387 0.008319355 0.0055064214 0.004650775
000140 4e 6c 02 3c 13 dd dc 3b f3 de bf 3b 9f 74 b1 3b
       0.007960392 0.0067402213 0.005855435 0.0054155136
000150 ac 7a 14 3b ab 1e 9d ba 36 86 1c 3b 9f 90 c2 ba
       0.0022656126 -0.0011987289 0.0023883707 -0.0014844126
000160 fb c3 34 bb cd ce d4 3a ff 89 00 3c b3 30 8c 3b
       -0.0027582634 0.0016235948 0.007845401 0.0042782663
000170 15 87 7e 39 c7 a6 9f 3b ab fa 6a 3b 9b fc 9e b8
       0.0002427365 0.0048721763 0.0035854976 -7.5810785e-05
000180 dd 0d 05 b9 d4 cd 82 3a 47 46 02 bb 82 9c cc 3b
       -0.00012689033 0.0009979554 -0.0019878314 0.006244243
000190 98 56 d9 3b 98 84 c4 3b f3 6b d7 3a 10 84 97 3a
       0.006632637 0.0059972517 0.001643537 0.0011559743
0001a0 3a b4 4e 3b bc 7f 91 ba 73 21 b3 ba 05 1b d8 3a
       0.003154053 -0.001110069 -0.0013666585 0.0016487545
0001b0 1a f3 31 3c 6a 2b 31 3c 4d b4 29 3c 34 25 b8 3b
       0.010861183 0.010813573 0.010357928 0.0056196693
0001c0 22 68 c5 3b 24 93 05 3c ab de 37 3b 4e 2b 66 3b
       0.0060243765 0.008152757 0.0028056304 0.0035121026
0001d0 02 e8 e9 3b b3 46 04 3c 98 35 39 3c 6f 8a 24 3c
       0.007138253 0.008073497 0.011304282 0.010042771
0001e0 a3 3c 90 3b 52 cd e6 3b e8 ce bd 3b e7 86 63 3a
       0.0044017597 0.007043519 0.0057924874 0.0008679465
0001f0 75 66 f9 3a 78 e3 22 3b 55 15 2e 3c cd 16 ab 3b
       0.0019027727 0.002485482 0.010625203 0.005221224
000200 e4 9d 7c 3b a1 b0 2a 3c 6c 2a bc 3b 9e 4e ab 3b
       0.0038546259 0.010418088 0.005742362 0.0052278778
000210 32 f9 0c 3c eb ee b3 3b ae 53 8d 3b c9 d7 ae 3a
       0.008604335 0.0054911277 0.004312954 0.0013339455
000220 36 e7 2d 3c 5a 62 2f bc 7e 51 12 3c 6e 8f 75 3c
       0.010614207 -0.010704601 0.008930562 0.01498781
000230 ab 78 8f bc 87 67 f4 3b 47 90 f2 3b 4a 27 95 bb
       -0.017513594 0.0074586305 0.007402453 -0.0045518028
000240 ce b6 86 3c 90 2a 7f 3c cf a2 7a 3c 4c 98 5f 3c
       0.01644459 0.015574113 0.015297606 0.01364715
000250 b7 17 25 3c d9 ab 47 3c bc a3 2b 3c 46 27 0d 3c
       0.010076455 0.012186968 0.010476049 0.008615321
000260 99 79 37 3c c2 51 01 3c 9b d1 fa 3b dd 9a 1a 3c
       0.011198425 0.007893028 0.0076543815 0.009436336
000270 7b fb a8 3b 7d ae 86 39 14 ca c7 3b 5f bf 3e 3a
       0.005156932 0.00025688476 0.0060970876 0.00072764413
000280 1c 22 4b ba cc 94 9c 3b 5c 6e 84 3c 6e a9 8e 3c
       -0.0007748918 0.00477848 0.016165905 0.017414775
000290 52 20 96 3c 1e 02 2d 3c ed 5e 16 3c 7e 80 57 3c
       0.018325958 0.010559587 0.0091779055 0.0131531935
0002a0 d5 ab 09 3c 3b 07 c9 3b ec ac 31 3c f4 67 0c 3b
       0.008402784 0.006134895 0.01084445 0.0021424266
0002b0 66 7d d7 3a 2b 0f b0 b9 99 8f 99 bb af 1f 0f bc
       0.001644057 -0.00033580637 -0.0046863076 -0.008735581
0002c0 e5 a9 d4 ba bc 8c 07 3a e9 23 2d ba f0 cf ae 3b
       -0.0016224949 0.00051708124 -0.00066047773 0.0053348467
0002d0 82 2d e8 3b 5b cc 03 3c ad cb 1b 3c eb ab e7 3b
       0.007085503 0.008044328 0.009509009 0.0070700548
0002e0 5e 53 10 3c 0a cc 2b 3c 4d 88 17 3c 31 df 6c 3c
       0.008808939 0.010485658 0.009248805 0.01445751
0002f0 d2 ff 5c 3c bb 4f 4c 3c 55 a4 40 3c 30 66 2c 3c
       0.013488727 0.012470181 0.01175793 0.01052241
000300 29 96 c6 3b 10 7f 58 3b 7a 91 f2 3b 02 7b d6 3b
       0.006060381 0.003303472 0.007402596 0.0065454254
000310 8a c9 a6 3b f5 47 24 3c c8 d0 11 3c f7 42 f4 bb
       0.0050899433 0.0100269215 0.008899875 -0.007454272
000320 6a ad b1 ba 2d 1f 36 bb 9b cc 73 bb 6e 5f 5e bc
       -0.001355571 -0.0027789578 -0.0037200812 -0.013572557
000330 8a 2c 41 bc 32 22 1a bc a7 d1 3f bc 21 b0 b4 3b
       -0.011790404 -0.009407567 -0.0117077 0.0055141603
000340 98 0b 56 3b 2e 37 59 3b 18 b0 bb 3a 39 b5 47 bb
       0.003266072 0.0033144462 0.0014319448 -0.0030473007
000350 72 cb 90 3a b4 39 01 bb 6f ea 78 bb 4d 76 d0 3a
       0.001104696 -0.0019718232 -0.003798153 0.0015904397
000360 5e b7 c5 3c 8c d6 90 3c 05 3d 9f 3c 13 4d 3d 3c
       0.024135288 0.017680429 0.019438276 0.01155402
000370 e3 6f 0b 3c 79 43 7f 3c f1 e8 86 3c e7 a4 d1 3c
       0.008510563 0.015580052 0.016468497 0.025591327
000380 85 28 b1 3c b4 36 53 bb d8 94 4b bc 8c 69 ff bb
       0.021625767 -0.003222865 -0.012425624 -0.0077945646
000390 33 ca 9d bc ae ee 78 3f 1a 99 7f bc 02 04 42 bc
       -0.019261455 0.97239196 -0.015600467 -0.011841776
0003a0 67 b8 d8 bb ad c4 ad bb db 55 79 3b c6 c6 a5 bb
       -0.0066137793 -0.0053029866 0.0038045559 -0.005059096
0003b0 8b 17 69 bb bd a9 f7 bb 5f d0 8d bc e9 11 f6 bb
       -0.0035567011 -0.007558076 -0.017311273 -0.0075094593
0003c0 34 4d 0d 3b 2a 44 02 3b b5 bd b6 3a 0f fd 88 3b
       0.002156091 0.0019877055 0.0013942035 0.0041805576
0003d0 09 24 d1 ba d2 20 cc 3a 55 d0 9d 3c 86 b0 48 3c
       -0.0015956174 0.0015573746 0.01926438 0.012249118
0003e0 c0 f1 61 bc 11 a3 3a 3a 18 ef 84 bc 87 82 27 bb
       -0.013790548 0.00071196357 -0.01622729 -0.0025559978
0003f0 71 89 85 3c b6 1f 8a 3b 0f 5b 62 bb 94 4e 5a 3c
       0.016300889 0.004215206 -0.0034539138 0.013324399

lr.4.bn.weight f4 [24]
000000 00 e1 79 3f c2 09 5d 3f 34 47 64 3f cb fa 89 3f
       0.9760895 0.86343014 0.8917115 1.0779661
000010 1a fa 9a 3f 11 5d 8b 3f c3 f1 94 3f 18 6a 90 3f
       1.2107575 1.0887777 1.163628 1.1282377
000020 fe 1a 88 3f fe 54 87 3f 3a b0 85 3f f1 ca 71 3f
       1.0633237 1.0572813 1.0444405 0.9445029
000030 b1 8c 8b 3f 37 11 71 3f d9 93 83 3f 38 a9 8b 3f
       1.0902311 0.9416689 1.0279495 1.0911016
000040 58 4b 8f 3f 29 28 89 3f b4 38 96 3f b3 f8 91 3f
       1.1194868 1.0715381 1.1736054 1.1404022
000050 36 55 80 3f e8 f9 9f 3f 89 2c 82 3f 13 1f 86 3f
       1.0026004 1.249814 1.0169841 1.0478233

lr.4.bn.bias f4 [24]
000000 f1 8a 48 3d 85 bd 44 3c e1 d7 40 3d 5e 63 27 bc
       0.04896063 0.012008076 0.04708088 -0.010216562
000010 5f 33 1e 3e 32 8d 6a 3d ac 67 89 3d aa 43 43 bd
       0.15449284 0.05726356 0.06709227 -0.04767195
000020 7e d7 e6 3d 41 27 bb bb 9e 95 29 be e0 21 72 bc
       0.112715706 -0.0057114665 -0.1656098 -0.014778584
000030 db 0f 9d 3d 22 77 9e bb fb 32 81 3d f4 90 ce bc
       0.0766904 -0.004835979 0.06308552 -0.025215603
000040 d4 9a d0 3d 7c 47 a6 3d 53 cd a7 3d 51 60 9c 3d
       0.10185781 0.08119103 0.08193459 0.076355584
000050 c5 c7 91 3d 9e 8d 43 3e 53 14 43 bd 6c 8b 4f 3d
       0.07118181 0.19096991 -0.047626805 0.050670072

lr.4.bn.running_mean f4 [24]
000000 88 9d 04 3e 01 97 e8 3e 02 e9 36 3f a0 41 5c bb
       0.12950718 0.45427707 0.7144929 -0.0033608451
000010 a6 53 92 bd dc b5 ce bd c5 67 17 bd c5 0f 66 3d
       -0.07144861 -0.10093281 -0.036964197 0.056167383
000020 c4 5d 94 bd a5 6a 46 bc 93 8c e0 bc 1b a6 2f 3b
       -0.07244447 -0.012110387 -0.027410781 0.0026801887
000030 ae b9 7b bd 74 e6 86 bd 4c 5f 61 bc d7 31 a4 bc
       -0.061456375 -0.06586924 -0.013755631 -0.020043297
000040 1b 5e 96 bc 4f d5 d2 bc 7f 9c ed bd cf 43 08 bd
       -0.01835542 -0.02573648 -0.11602115 -0.033267792
000050 f2 fb 92 3c 53 c1 bc bd 4b ad 9c 3c e4 f0 4c bd
       0.017942403 -0.09216561 0.019125601 -0.05003442

lr.4.bn.running_var f4 [24]
000000 fe b9 6c 3b fe 83 58 3c b2 94 1b 3d 28 a5 e6 39
       0.0036121602 0.013215063 0.037983604 0.0004399207
000010 21 ad f5 39 d9 e8 21 3a 3b 18 a1 39 ec 03 7b 39
       0.00046859033 0.00061763596 0.00030726366 0.00023938686
000020 5a e5 a0 39 96 0a 45 39 c3 42 5a 39 df 43 3e 38
       0.00030688458 0.00018791328 0.00020814971 4.536274e-05
000030 12 45 01 3a 89 53 98 39 c6 21 cd 37 9d 02 e1 39
       0.0004931252 0.00029053938 2.4453631e-05 0.0004291729
000040 c1 f6 04 38 57 57 0a 38 52 57 85 3a 69 ed a2 39
       3.170106e-05 3.2983105e-05 0.0010173118 0.00031075932
000050 e6 b5 e7 38 d2 de 63 3a a7 5b fb 39 84 ac cc 39
       0.000110488196 0.00086925656 0.00047942737 0.00039038446

lr.6.weight f4 [24, 24, 3, 3]
000000 be a5 8d bb d8 ee 9b bb 0e 30 45 bc 39 fa 0f bc
       -0.0043227365 -0.004758697 -0.012035383 -0.008787685
000010 39 62 80 3f 56 59 de bb fc 24 8a 39 2b d9 92 3b
       1.0029975 -0.006785552 0.00026348967 0.004481455
000020 47 b0 ba bb 35 77 66 bc 82 0c 69 bc df 61 95 bc
       -0.0056972834 -0.014066507 -0.0142241735 -0.018235145
000030 2d ec 63 bc d8 56 b2 bb 66 3a 80 bc e7 0c fb ba
       -0.013911289 -0.0054424815 -0.015652847 -0.0019153625
000040 c9 14 b2 bb ae 5f 4f bc 46 2f a4 bc ba 7b 96 bc
       -0.0054346067 -0.012657089 -0.020042073 -0.018369544
000050 f7 5d b2 bc 7c 7b 9c bc 5b cb 54 bc 5e 3f a2 bc
       -0.021773322 -0.01910185 -0.012987937 -0.019805606
000060 19 ff 80 bb c0 cd 52 bc 00 1a 87 bc 24 5a 76 bc
       -0.00393666 -0.012866437 -0.01649189 -0.01503614
000070 05 0a a1 3b ab b6 fd 3b 61 43 b7 bc 92 e0 97 3c
       0.0049145245 0.007742723 -0.022370996 0.0185397
000080 77 48 64 3c ee 0b a2 bc b4 72 9e bc e2 7e 44 3c
       0.013933293 -0.01978108 -0.019341804 0.011993142
000090 b6 c9 53 3c 20 ce ee bc 2b a6 b3 bc ac db 5e 3c
       0.01292651 -0.029151022 -0.021929821 0.013602179
0000a0 8a 6b f8 3b d0 9a 3d bd fa b2 47 3c a2 00 a3 3c
       0.007581179 -0.04629022 0.012188667 0.019897763
0000b0 15 73 2f bc 4e ed 21 3b 50 aa 8f bb 07 53 12 bc
       -0.01070859 0.0024708095 -0.0043843165 -0.008930928
0000c0 cd 75 d0 3a 99 ec fe bb a2 32 c9 bb de 07 ec ba
       0.0015904248 -0.0077796695 -0.006140069 -0.0018007716
0000d0 2d 05 d4 bb 58 8e b5 bb 19 97 bb bc b0 0d b3 bc
       -0.0064703436 -0.0055406503 -0.022899197 -0.021857113
0000e0 86 3b d2 bc 89 b9 2c bc e4 a3 43 3c 3c 56 6c bc
       -0.025663149 -0.010542282 0.01194093 -0.014424857
0000f0 72 9a 05 3c c3 07 2b b9 91 f0 bf bc b9 f8 97 bc
       0.008154498 -0.00016310722 -0.02343014 -0.018551217
000100 c7 de d9 bc df 2a bb bc 4d 8f 4c bc 41 5e 69 bc
       -0.026595486 -0.022847591 -0.012485337 -0.014243663
000110 7a 9f 80 bc 15 f9 3c 3a 9c 42 e3 ba cd ee 72 bc
       -0.015701044 0.0007208747 -0.0017338577 -0.014827442
000120 f5 b1 d8 3b 7f 94 d1 bb 06 a0 86 bc a0 8a c1 3b
       0.006613011 -0.006395876 -0.016433727 0.005906418
000130 9c 59 cd bb 79 94 f2 bb 46 47 a0 bb 86 ee 75 3a
       -0.006266786 -0.007402953 -0.004891309 0.0009381551
000140 b2 b5 25 bb 73 27 fb bb 32 d9 8c bc 9a 10 c2 3b
       -0.00252853 -0.007664615 -0.01719341 0.005922389
000150 4a d9 f6 3a 82 08 e8 3c 48 dc f3 3b e9 3e 2f bb
       0.0018833068 0.02832437 0.007442031 -0.0026740378
000160 b8 62 53 bc c9 fb 77 bc 17 83 91 3c 0b 42 c4 3c
       -0.012901954 -0.015135714 0.017762704 0.023957273
000170 5d 0d 8a 3c c6 7f c3 3c 1e b4 8c 3c eb 94 e5 3b
       0.016852075 0.023864638 0.01717573 0.007006278
000180 4b 13 1a bc 25 0f f0 3c 19 2d 52 3c 7e b0 ab 3c
       -0.009404014 0.029304096 0.012828135 0.020958181
000190 58 b3 82 3c 46 8a 48 3c a7 e5 c3 3c 61 bf 3a 3c
       0.015954658 0.012239998 0.023913218 0.011398167
0001a0 28 70 a0 3c 3e 6b 9a bb 60 00 95 bb e8 97 17 3c
       0.01958473 -0.0047124913 -0.004547164 0.009252526
0001b0 f5 7c f0 3c d7 d0 97 3c a2 31 8a 3b c5 7d e1 3c
       0.02935646 0.0185322 0.0042173425 0.027525792
0001c0 4f 9e d4 3c b4 16 8f 3c 32 0b ab 3c c1 2f f1 3c
       0.025954394 0.01746688 0.020879362 0.029441716
0001d0 b3 a3 ab 3c 06 9e 8a 3c 51 2c 38 3c 5f f6 2f 3c
       0.020952081 0.016921055 0.011241035 0.010739892
0001e0 07 37 65 3c b5 dc 3e 3c c3 01 05 3c 2c dc db 3b
       0.01399017 0.0116493 0.008118096 0.006709596
0001f0 d5 ab f2 3b fd c2 1f 3c 54 4b 95 3c 72 cb a9 3a
       0.007405738 0.009751079 0.018224396 0.0012954308
000200 9f 68 96 bb ef 78 81 3c 1a 41 1f bb d5 63 58 3b
       -0.0045901085 0.015804736 -0.0024300278 0.003301849
000210 2b bd 4e 3b 51 68 01 38 8c 46 d1 3a b3 a5 61 bc
       0.0031545858 3.085315e-05 0.0015966459 -0.013772416
000220 b3 cf 95 bc 9f b2 ba 39 75 1e 02 3b 01 ec 0e 3b
       -0.018287515 0.00035609768 0.001985458 0.002180815
000230 5b 98 60 3c 87 23 89 3c 6d e8 ac 3a 0a 67 50 bc
       0.013708199 0.016740574 0.0013191827 -0.012719879
000240 96 39 af 3c 36 97 83 3c 09 3e f5 3b c8 0f ab 3c
       0.021389764 0.016063314 0.007484202 0.020881549
000250 df a2 65 3c 5d fa 0d 3c 59 5c 4b 3c 34 cb 58 3c
       0.014015882 0.008665648 0.012412154 0.013232041
000260 30 9b 29 3c 7d 05 01 3c 9e 50 f3 ba 9d a1 55 bb
       0.010351941 0.007874844 -0.0018563455 -0.003259755
000270 31 1a 20 3c c0 d9 df ba 9a 7a c5 ba 5c bf f3 3b
       0.0097718695 -0.0017078444 -0.0015066445 0.0074385833
000280 23 42 f7 3a a3 4a 8a 39 b4 f3 2b 3c ba e6 d6 bb
       0.0018864315 0.0002637702 0.010495115 -0.0065582665
000290 ae eb 7c 3c cf 99 f9 3b cc bf 1b bc 62 5d fc ba
       0.01543705 0.0076172124 -0.009506177 -0.0019253904
0002a0 26 3a 0b 3c 6a 70 52 ba 0a c2 5b bb 0c ec 99 3c
       0.00849775 -0.0008027615 -0.0033532404 0.018789314
0002b0 20 26 00 3d 27 f4 c4 3b 89 3b a4 3c 69 49 96 3a
       0.03128636 0.0060105505 0.02004792 0.001146597
0002c0 2c 6a 69 3c 2f 37 4e bc ff c5 de 3c e6 3e 6a 3c
       0.014246505 -0.012586399 0.027194021 0.014297223
0002d0 a0 00 cc bb 32 74 31 bc 0d 9a cb bb 10 93 a2 bb
       -0.0062256604 -0.010830926 -0.0062134326 -0.004961379
0002e0 69 4f 25 bc e7 35 27 bc 96 36 06 3c cb c1 65 3c
       -0.010089734 -0.010205722 0.008191725 0.014023255
0002f0 8f f7 2e 3b 8e aa 17 3d 46 37 02 3d f3 dd 21 bb
       0.002669785 0.037027888 0.031790994 -0.0024698942
000300 d1 53 9b 3c 3d 8e 38 3c 4a bd b5 bb 48 15 01 3c
       0.018960865 0.011264381 -0.0055462467 0.007878609
000310 79 55 19 3d 14 58 29 3c 87 ed 0a 3d c5 b4 3c 3a
       0.03743503 0.010335941 0.03391793 0.00071985676
000320 7a 43 b5 bb 99 16 1f 3d 43 fb cf ba f8 1e e9 3b
       -0.0055317255 0.03883991 -0.0015867729 0.0071142875
000330 1e b3 0d 3c bf c0 4e 3b 92 00 5c 3c 18 e9 8f bc
       0.008648662 0.003154799 0.01342787 -0.017567202
000340 ee 79 3f 3c 31 0b 08 bc 43 a4 2a bc 4c 8d 92 3c
       0.011686785 -0.0083034495 -0.01041514 0.017889641
000350 be 9b 0c 3c e3 b5 22 bc f5 cf 91 3c eb 2e ce bb
       0.008582054 -0.0099310605 0.017799357 -0.006292214
000360 7d a9 9c 3c 51 45 a0 3c 3e 4d 95 3c d8 68 82 3c
       0.019123787 0.019564303 0.018225309 0.015919134
000370 db 0a b8 3b a1 8b ab 3c 0d 45 24 3c fc 51 6d 3c
       0.0056165284 0.020940604 0.010026229 0.014484879
000380 96 c2 7a 3b 93 7a 82 bb 80 37 d9 bb 2c ad bd bb
       0.0038262955 -0.003981897 -0.0066289306 -0.005788466
000390 1c 14 22 bc d4 ba 78 3f 21 b1 2b bc 9e e6 02 bc
       -0.00989249 0.9716008 -0.010479243 -0.007989554
0003a0 46 7a 41 bc a8 e8 91 bc ab e4 d3 3b c6 9b 69 3b
       -0.011808937 -0.017811134 0.0064664683 0.0035645827
0003b0 7a fa 86 3b 35 91 84 3b 3a 4f 6f bc 4c 9c db 39
       0.0041192146 0.0040456303 -0.014606291 0.00041887385
0003c0 3f a5 2b 3c ae 1a 01 3b 66 8a 83 bb 3e fe 80 ba
       0.010476409 0.001969974 -0.004014301 -0.0009841395
0003d0 83 a3 a1 bb b4 b9 ce 3b 3e e4 3d bc 7e d3 8a 3c
       -0.004932822 0.0063087586 -0.011590062 0.01694655
0003e0 5a 7b 25 bc 98 ca cf 3a 10 fb 75 bc f8 71 4f 3b
       -0.01010021 0.0015853224 -0.015013471 0.0031653624
0003f0 53 9a 20 3c 84 b1 80 bc 93 ee ac bb 65 d0 42 3b
       0.009802419 -0.015709646 -0.0052774637 0.0029726264

lr.7.bn.weight f4 [24]
000000 2c 73 78 3f 5e eb 56 3f 18 83 66 3f 68 c9 8c 3f
       0.9705074 0.8395289 0.90043783 1.0998964
000010 56 33 8f 3f 74 e8 88 3f c5 ca 8c 3f 67 1f 83 3f
       1.1187541 1.0695939 1.099938 1.0243958
000020 4a e9 8c 3f 78 d1 83 3f 8b ca 87 3f c9 de 88 3f
       1.1008694 1.02983 1.0608686 1.0692989
000030 82 fa 8d 3f 3c 77 7c 3f 45 bf 87 3f 06 d7 8d 3f
       1.1092074 0.9861944 1.0605246 1.1081245
000040 6d 53 88 3f 4e 49 83 3f 32 c3 89 3f 5c 3c 85 3f
       1.065046 1.0256746 1.0762694 1.0409045
000050 73 de 67 3f 3f 4c 76 3f 43 be 89 3f 74 71 85 3f
       0.90573806 0.9621009 1.0761188 1.0425248

lr.7.bn.bias f4 [24]
000000 e6 85 5f 3c d9 f1 33 3d f5 3a a8 3c c1 96 13 bd
       0.013642764 0.043931816 0.020535925 -0.036032442
000010 ad c3 b3 3b d3 03 66 3d d2 e1 9f 3d e6 a7 8c bb
       0.005485973 0.05615599 0.07806744 -0.004292476
000020 04 ec bc 3d 60 94 95 bd 8c 6c ae bd da 14 90 bb
       0.09224704 -0.07303691 -0.085167974 -0.004397017
000030 da 43 00 3d 48 a1 fa 3c a6 8a 94 3d ac 3e 60 bc
       0.03131471 0.030594483 0.072530076 -0.013686817
000040 60 07 34 3d ce 78 b1 3c 18 3b 45 bc 6e 6a 0d 3e
       0.043952346 0.02166405 -0.012038015 0.13810131
000050 76 5b 37 3d dd 2b c4 3d c5 dc 65 bd ee ff c6 3c
       0.04476496 0.09578679 -0.056118745 0.024291959

lr.7.bn.running_mean f4 [24]
000000 0a 27 03 bd 85 a6 de 3e ba fe 35 3f ad 16 f7 bc
       -0.032019652 0.4348642 0.71091807 -0.03016218
000010 ca 86 dd bd 13 b2 45 bd ee 3d 47 bd af 9c 8a 3d
       -0.108167246 -0.048265528 -0.048643045 0.06768166
000020 40 8e a2 bc c4 aa 96 bc de aa 22 3d cc 7a dd bc
       -0.01984322 -0.018391974 0.039713733 -0.027036093
000030 8d a5 3b bd af 4f 9c bd 59 70 04 bd d0 27 ae bc
       -0.04581218 -0.07632386 -0.032333706 -0.021259218
000040 74 11 40 bd 12 b4 85 bc 5a 55 a4 bd e5 0a 23 bb
       -0.046891645 -0.016321216 -0.08024092 -0.002487832
000050 ae 1c 6a 3d 8b 09 62 bc 95 be 0f bd 15 24 84 bd
       0.057156257 -0.0137962205 -0.035093863 -0.064521946

lr.7.bn.running_var f4 [24]
000000 ea 4a e5 3b 6b 6a 8c 3c 6f fb 45 3d ab cd 1d 3b
       0.006997456 0.017140588 0.04833549 0.0024078886
000010 18 da 06 3c fd 66 eb 3a 14 cb a4 3a b7 25 a0 3a
       0.008230709 0.001795977 0.0012572729 0.0012218271
000020 6d e6 22 39 dc dd a3 3a 7b da d8 3a 32 12 88 3a
       0.00015535364 0.0012502032 0.0016544604 0.0010381399
000030 49 19 98 3a 2b 5a 8e 3a a6 10 0c 39 2f 3f bf 3a
       0.0011604215 0.0010860612 0.00013357642 0.0014590974
000040 15 89 84 3a 17 22 2c 39 18 37 a0 3a e3 e6 89 3a
       0.0010111654 0.00016415898 0.001222345 0.001052108
000050 5d 2e d2 39 c4 3e d5 3a 16 2d 21 3b ae e2 c4 3a
       0.00040088865 0.0016269316 0.0024593524 0.0015021169

lr.9.weight f4 [24, 24, 3, 3]
000000 87 3d 8e 3b c1 4d 98 3b 04 96 92 bb dd 7e bf ba
       0.0043408307 0.004647941 -0.0044734497 -0.0014609952
000010 f0 8f 80 3f 4e 9e 46 3a c6 d6 c0 3c 7c f2 b8 3c
       1.0043926 0.000757669 0.023539912 0.022576563
000020 db 45 62 ba 99 db 8c bb be 8e a3 ba 66 90 11 bc
       -0.0008631625 -0.004298639 -0.0012478454 -0.008884525
000030 6e 85 a1 bc 07 a2 ba ba 96 1e 26 bc 3f fe 1e 3b
       -0.019716945 -0.0014238962 -0.010139128 0.002426043
000040 51 f2 a6 3b 21 89 95 bb 52 cb f0 bb c6 33 c8 b9
       0.0050948043 -0.004563466 -0.0073484564 -0.00038185547
000050 d1 e5 16 bc 80 50 b7 bc f4 62 d3 bb 19 df 0a bc
       -0.009210066 -0.022377253 -0.006451005 -0.008476042
000060 a6 c9 9a 3a 07 76 99 ba 4b 67 09 bc 1e 70 bf 3c
       0.0011809363 -0.0011708149 -0.008386443 0.023368891
000070 c3 79 92 bc aa ce 56 bd f6 e1 30 bd 87 84 90 3d
       -0.017880326 -0.052443184 -0.043184243 0.070565276
000080 00 ef d4 3c 45 08 86 3c 9b 3d 3d 3d f0 ba d5 3c
       0.02599287 0.016361365 0.04620133 0.026090115
000090 12 28 9c 3c 73 93 3c 3c 0f 4d 51 bd bb 95 a5 3c
       0.019062076 0.011509764 -0.05109888 0.020212999
0000a0 8e 91 a6 bb 85 2e e5 bc 93 e7 bf 3c a8 a0 78 3c
       -0.0050832694 -0.027976284 0.023425853 0.015175022
0000b0 1f 16 c9 3b 0f 83 57 bc 28 da 8c bc 70 a4 12 bd
       0.0061366702 -0.013153805 -0.017193869 -0.03580135
0000c0 6b 10 d1 3c 98 b8 8c bc 53 41 86 bc ab 0e 79 bb
       0.025520524 -0.017177865 -0.01638857 -0.0038003128
0000d0 bd bd fb 39 f6 74 48 bc 74 66 91 ba 74 fa 11 bd
       0.00048015817 -0.012234917 -0.0011093155 -0.03563924
0000e0 10 67 38 bc 8b 36 f1 bc bd 3a 80 bc ea aa ee bc
       -0.011255041 -0.029444953 -0.015653009 -0.029134233
0000f0 e4 82 e4 3c 09 1f d8 3c 64 80 94 bc 7f b3 1a bc
       0.027894445 0.026381986 -0.018127628 -0.009442209
000100 8b 40 ed bc 48 66 e5 bb 73 2c e8 bc 5d 0f 78 bc
       -0.02896144 -0.0070007183 -0.028341508 -0.015140382
000110 80 2c d6 bc d9 92 8f 3b 65 1c ee 3b df 7b 5a bc
       -0.026144266 0.0043815193 0.0072665685 -0.013335197
000120 e3 f3 ab bb ab 83 20 bc 0f 5d f7 bc 96 72 92 bb
       -0.0052475794 -0.009797017 -0.030195741 -0.004469226
000130 c0 50 8b bc 35 ee c5 bc e1 fa 53 b9 68 77 03 3a
       -0.017006278 -0.024161438 -0.00020215988 0.00050150463
000140 7b c0 f6 bb 18 dd 1e ba 98 26 ce 3c e2 08 fd 3b
       -0.0075302697 -0.0006060167 0.025164887 0.007722006
000150 2d bf 5c bd 3b e1 d8 3c cd bb 1a 3d 2e 23 15 3d
       -0.053893257 0.026474586 0.037776757 0.036410503
000160 5e c3 2e 3d 6e 96 99 bb ab 97 42 bc e4 90 0b bc
       0.042666785 -0.004687122 -0.011876981 -0.008518431
000170 13 7d cf bc ea 67 3e 3c 72 2a 7b b9 a7 c9 a6 b9
       -0.025328195 0.011621455 -0.00023953037 -0.0003181223
000180 f0 54 e0 bb f9 57 9a 3b b4 86 e0 ba ce e8 85 bc
       -0.006846063 0.004710194 -0.0017129988 -0.016346361
000190 0b d9 37 3c a1 26 b8 3a 12 68 e5 3c a0 1e 19 3d
       0.011221181 0.0014049598 0.028003726 0.037382722
0001a0 f6 b4 98 3c ca 4b 73 bb a3 6c 54 3c fb b7 c8 3b
       0.018640976 -0.0037124031 0.012965354 0.006125448
0001b0 47 30 cd 3c 46 90 06 3b 79 51 6b 3b 4c 83 32 3d
       0.025047434 0.002053277 0.0035906716 0.043582246
0001c0 1b fe bf 3b c6 6d 32 bc 0e 4e 17 3d a6 86 09 3d
       0.005859149 -0.01089043 0.036939673 0.033575676
0001d0 f7 0c 28 3c 11 eb e9 39 92 d2 4e bc 8f 31 9c ba
       0.010256997 0.0004461636 -0.012623446 -0.0011916625
0001e0 ba aa 2c 3c cd 4a db ba a8 d3 93 3b a1 e9 d0 bb
       0.010538751 -0.0016730666 0.0045113154 -0.006375507
0001f0 24 de aa 3b 0b 53 43 3b 91 96 12 bb 0e fd 07 3c
       0.0052144695 0.0029804136 -0.0022367577 0.008300079
000200 a5 f4 bf bc d2 06 86 3b a2 30 a6 bc 86 76 78 bc
       -0.023432085 0.0040901685 -0.020286862 -0.015164977
000210 b8 a4 7a bc 60 39 d4 bc 6e f7 9e bc 6a f5 41 3d
       -0.015298061 -0.025906265 -0.019405093 0.047353186
000220 15 45 15 bd cb 2a 14 bb dc a4 3c 3d 3f 2b aa 3c
       -0.036442835 -0.0022608514 0.04605566 0.020772574
000230 d2 2d 67 3c 81 78 e1 bc 69 7b 9e 3b 51 a2 e8 3b
       0.0141100455 -0.027523281 0.004836489 0.0070994277
000240 63 fc e5 3b ab 70 c9 3c f2 94 6a 3a 9d a8 2b 3b
       0.007018612 0.024589857 0.0008948586 0.002619303
000250 ee 76 b9 bc 03 7a af b9 ee 71 3b 3b 6f 5d 80 bb
       -0.022639718 -0.00033469507 0.0028601843 -0.003917388
000260 05 ce 56 bc ab 42 c9 bb 8e 9c 68 bc 6f 25 32 bb
       -0.013110642 -0.0061419806 -0.014197482 -0.0027182957
000270 59 ea 5a bc d5 35 d4 bc be 0b 18 bb 82 f1 94 bb
       -0.013361537 -0.025904575 -0.0023200358 -0.0045453915
000280 80 bb 71 bc d4 9f 15 bc 5d d0 39 3d b8 8b a5 3c
       -0.014754176 -0.009132344 0.045364726 0.020208225
000290 71 c1 34 3d 0e ba 80 3c 9a b4 2a bd 3e 32 32 3b
       0.044129793 0.015713718 -0.04167614 0.0027190591
0002a0 d9 16 2a 3b 7f d8 f5 bc 99 73 9f bc ff 99 6f bc
       0.002595356 -0.03001046 -0.019464301 -0.014624118
0002b0 ea 70 92 bc dc 19 cc bc f8 9e b0 3a 83 44 3a bc
       -0.017876107 -0.024914674 0.0013475111 -0.0113688735
0002c0 e1 49 95 bc 77 96 03 bc 88 a4 6e 3c 55 e2 08 bc
       -0.018223705 -0.008031479 0.0145655945 -0.008354743
0002d0 aa 24 22 bc b5 3c 6e bc 1c 78 5a bc 95 5d c5 bc
       -0.009896437 -0.014540841 -0.0133343 -0.024092475
0002e0 4f 8d 61 bc 9d 5e b5 bc 15 07 a9 ba c2 88 3c 3c
       -0.013766601 -0.022139842 -0.0012895787 0.011507215
0002f0 99 f9 91 bb d8 57 60 3b 1b 4b 97 bc 53 19 f2 bc
       -0.004454803 0.0034232046 -0.01846843 -0.029553091
000300 94 3a 4f 3b 76 b8 93 bc 16 ff e5 bc 28 e7 be bb
       0.0031620609 -0.018032294 -0.028075736 -0.005825896
000310 27 df c1 3c fd f5 81 3a 6e b4 2b 3d a8 26 3e 3d
       0.023665978 0.0009915229 0.041920118 0.046423584
000320 07 65 f4 3c 69 8e 4c 3d 7b 37 73 3c b7 80 54 3c
       0.02983333 0.0499405 0.014844771 0.012970141
000330 c8 e0 a4 3c 1d 90 d8 3c 69 45 a4 b9 3b 87 04 3d
       0.020126715 0.026435906 -0.00031332232 0.03235553
000340 e4 10 16 3c e6 c7 dd bc 6d d6 aa bc 47 6c 8f 3c
       0.0091593005 -0.027072858 -0.0208542 0.017507685
000350 26 cf 24 3c 0c f8 58 bb 06 84 d4 3c 14 59 3b 3c
       0.010059154 -0.0033106832 0.02594186 0.011434812
000360 de 04 09 3c 0b 9d 33 3b c5 32 ce 3b 16 d8 dc bb
       0.008362977 0.0027406837 0.0062926733 -0.0067396266
000370 ca c2 ac bc cc 46 07 bc a0 7f 42 bc 19 4c 7a bb
       -0.021088976 -0.008256625 -0.0118712485 -0.003819233
000380 e7 fc a3 bc 2f 2c 35 3b b5 e5 5a b9 4b 97 b2 ba
       -0.020018054 0.0027644744 -0.00020875673 -0.0013625411
000390 01 c2 50 bc 40 40 78 3f 80 72 2c bc aa 8b bd bb
       -0.012741567 0.9697304 -0.010525346 -0.0057844715
0003a0 06 e0 3b bc 9e f0 77 bc b2 b7 5a 3c 3d 22 79 3c
       -0.011466986 -0.015133051 0.01334946 0.015205917
0003b0 06 1c 11 3c c9 52 02 3b 8b 34 60 bc ee 9f 08 bb
       0.008856779 0.001988577 -0.013684402 -0.0020847279
0003c0 2c ed 66 3c d5 4f 22 3c 21 eb 5e b9 0b e0 fa 3b
       0.014094632 0.009906729 -0.00021259162 0.0076561025
0003d0 79 6d 8f bc 77 02 69 bc 71 66 7f ba b9 8d 87 b9
       -0.017508255 -0.014221779 -0.0009742743 -0.00025854798
0003e0 d9 82 86 3c 96 26 54 b9 77 81 8d bc fe 20 df 3c
       0.016419815 -0.0002023227 -0.017273648 0.027237412
0003f0 71 83 40 3c a3 b1 53 3b 52 bf e6 3c 11 d5 00 3c
       0.011750088 0.0032301925 0.0281674 0.007863299

lr.10.bn.weight f4 [24]
000000 2a 61 7c 3f 73 5f 66 3f cd 77 60 3f 2f 3e 87 3f
       0.9858576 0.89989394 0.876828 1.0565852
000010 3b 82 92 3f 8c de 84 3f 70 aa 7c 3f b4 7c 78 3f
       1.1445993 1.0380416 0.98697567 0.9706528
000020 26 0d 85 3f 52 77 89 3f ec 91 85 3f 0e 14 88 3f
       1.0394638 1.0739539 1.0435157 1.063112
000030 7d 0d 8a 3f da fa 83 3f 07 7d 67 3f da be 87 3f
       1.0785366 1.0310929 0.9042515 1.0605118
000040 f7 64 89 3f d5 ac 85 3f 1d c3 7a 3f d5 17 6e 3f
       1.0733937 1.0443369 0.9795397 0.93005115
000050 0f 55 58 3f 6b 6d 6c 3f 01 c7 82 3f ce 21 90 3f
       0.8450479 0.9235446 1.0216981 1.1260316

lr.10.bn.bias f4 [24]
000000 5d 67 9f bb 32 e9 26 3b a7 12 ef 3c 9d 07 68 bd
       -0.004864617 0.0025468585 0.029183699 -0.056647886
000010 82 82 95 3c 3e 28 f9 bb a1 1c ed 3c dd e3 7f 3c
       0.018250708 -0.007603674 0.028944315 0.015618292
000020 dc b4 21 3d 88 5f b7 bd f7 7a 7c bc 52 54 f1 ba
       0.03947912 -0.08953768 -0.0154101765 -0.001841197
000030 f6 15 7b 3b b1 1f 96 3c bb b1 75 3d d0 d3 e5 3a
       0.003831265 0.018325659 0.05998395 0.0017534439
000040 fe 65 99 3c 86 8a 55 3a bb 8b bc 3c e9 8c 48 3d
       0.018725391 0.0008145947 0.023015847 0.048962507
000050 2f 1a 6a 3d 6f b3 8c 3d 24 de b1 bc d7 0c b5 3c
       0.057153877 0.06870162 -0.02171237 0.02210085

lr.10.bn.running_mean f4 [24]
000000 45 56 80 bd cc 4f d6 3e c8 c1 37 3f 89 a2 01 bd
       -0.062664546 0.41857755 0.7178006 -0.031649146
000010 48 99 6d bd cc 6a 01 bd 83 b0 d8 bb 30 cc 05 3e
       -0.05800751 -0.03159599 -0.0066128387 0.13066173
000020 7c e4 28 bd 42 f0 39 bd 5b 70 ad 3d 38 c3 14 bd
       -0.041233525 -0.045395143 0.08468696 -0.036318988
000030 be 41 e4 bc fc 75 88 3c e5 10 1b bd 9a 9f a9 bc
       -0.02786338 0.016657822 -0.03785791 -0.020705987
000040 89 48 78 bd 6f 6e 0b bd 9a 85 77 bd e4 e2 b1 3c
       -0.06061605 -0.034040865 -0.060430147 0.021714635
000050 a1 fd b3 3d 51 2a 2a bd 86 65 0c bd 56 76 c7 bc
       0.0878861 -0.041544262 -0.034276508 -0.02434842

lr.10.bn.running_var f4 [24]
000000 a1 a3 d6 3b 79 16 75 3c ab d7 64 3d e6 f8 82 3b
       0.006550268 0.014958971 0.05586974 0.003996956
000010 be 64 01 3c 25 4c 57 3b 45 ae 13 3a 47 52 66 3b
       0.007897554 0.0032851782 0.0005633573 0.0035144256
000020 f1 6d ac 39 b6 00 de 3b 89 e4 33 3b bb 9e ca 3a
       0.0003288831 0.006774987 0.002744945 0.0015458682
000030 19 cf 0e 3a 0b a7 51 39 7e 47 41 39 b2 57 c5 3a
       0.000544773 0.00019994022 0.00018432547 0.0015056042
000040 6e 8e e2 3a f8 59 28 3a de b4 01 3a 09 20 8b 3a
       0.0017284879 0.0006422098 0.0004947911 0.0010614406
000050 23 ef 6f 3a 46 0f 36 3b 3d 59 2d 3b 0c ce 93 3a
       0.00091527606 0.00277801 0.0026450895 0.0011276617

lr.12.weight f4 [24, 24, 3, 3]
000000 10 ed ad 3c 4c 69 d0 bb ee 51 67 bc f1 11 d7 ba
       0.021231204 -0.0063602086 -0.014118655 -0.0016408545
000010 66 a5 80 3f 60 af 17 bd 19 00 84 3c 34 db 2c 3c
       1.0050476 -0.037032485 0.016113328 0.010550309
000020 39 ea fd bc 26 3a 1f bc 1d 73 6e bc 4d 83 52 bc
       -0.030995475 -0.0097184535 -0.014553812 -0.012848687
000030 9d 66 f3 bb da 89 0e 3c 89 6c f2 3b 05 50 bc 3b
       -0.007428004 0.008699859 0.0073981923 0.0057468438
000040 57 7f 8c 3a 70 d9 e2 bb 8e 34 d1 ba e0 5f 72 bc
       0.0010719103 -0.006922893 -0.0015961097 -0.014793366
000050 c6 54 7b bc 1b 60 9a bc d7 1b b7 3b 19 89 0a 3c
       -0.015340036 -0.018844655 0.0055880356 0.008455538
000060 a4 3d e8 3b be e6 a8 bb 4d 2d 2b 3b f3 ac da bb
       0.0070874263 -0.0051544597 0.002611953 -0.006673449
000070 f7 83 23 bd 21 f3 93 bc 02 86 4d bb 0e e2 a4 3d
       -0.039920773 -0.018060269 -0.0031360392 0.08050929
000080 96 6d ce bd f6 a5 d5 3b 99 3c 23 3d 6e fd 25 bc
       -0.100794956 0.006520028 0.039852712 -0.010131223
000090 80 d0 81 38 38 85 10 bb 6f 06 f4 bc f0 bf f6 3c
       6.1900355e-05 -0.002205206 -0.029788224 0.03012082
0000a0 94 84 60 bc 36 b9 b1 bd 07 df 04 3c b0 14 1f 3d
       -0.013703484 -0.08677904 0.0081098145 0.03883809
0000b0 5d 05 cf bb a6 28 ea 3a 73 cc 8e bc 04 22 69 bc
       -0.006317778 0.0017864897 -0.017431473 -0.014229301
0000c0 f1 81 bf 3c 3f 79 ac bc 5e 25 fe 3b 73 53 6a bc
       0.02337739 -0.021053908 0.0077559194 -0.014302122
0000d0 e4 da f5 bb 61 25 97 bc 05 38 f3 bc 98 7a 53 bd
       -0.0075029004 -0.01845044 -0.029689798 -0.051630586
0000e0 a6 4a 6c bc 87 53 80 bc 34 39 d1 bc 8d e7 f1 bc
       -0.014422094 -0.015664829 -0.025539972 -0.029529357
0000f0 e5 05 51 bc ec f6 de bc da a9 12 bd e1 2b 06 bd
       -0.012757753 -0.02721735 -0.035806514 -0.03275669
000100 79 6e 42 bd 6f 95 90 bc 42 12 52 bc 55 20 69 bc
       -0.047468636 -0.01764938 -0.012821736 -0.0142289
000110 82 ee 64 bc ad 1b ce ba bf 84 c5 bc 4e c1 f2 bc
       -0.01397288 -0.0015724801 -0.02411115 -0.02963319
000120 98 a0 1e bb 61 f0 d4 bb 0b d2 98 bc fd 72 1c bc
       -0.0024204608 -0.006498382 -0.018654844 -0.0095489
000130 c9 32 19 bd b6 fc 7a bd 2e da ad bc a5 b0 cf bc
       -0.037401948 -0.06127616 -0.0212222 -0.025352785
000140 75 7e 7a bd bb 7f be 3c c2 db 64 b9 e3 f4 65 bc
       -0.061155755 0.023254266 -0.0002182564 -0.014035436
000150 69 92 c0 3c b8 c3 b8 3c 4d ae b4 bc 2f 14 a0 3c
       0.023507314 0.022554263 -0.02205577 0.019540874
000160 1b 4c 37 3d c9 e9 42 3d 79 41 b6 bc bf 9a 9b bc
       0.044750314 0.047586236 -0.022248017 -0.018994687
000170 9b 20 40 bc db 04 77 bb b1 ca 46 3c 91 d2 c3 3c
       -0.011726524 -0.0037692103 0.012133286 0.023904117
000180 55 6c 02 3c 3a 69 02 bc a4 4e 20 ba cf 76 9d 3c
       0.007960399 -0.007959658 -0.0006115234 0.019221691
000190 de 6e 0d bd 15 59 ba bb 3d 01 8a bc 32 81 f7 3c
       -0.03452956 -0.005686889 -0.016846294 0.030212972
0001a0 69 69 ca ba 0d be 57 bc 70 b7 af 3b 28 13 06 3c
       -0.0015442792 -0.01316787 0.0053624436 0.008183278
0001b0 4a 1c 3f bc a1 82 b8 3a e0 4e 09 bc 0d 73 80 bb
       -0.0116644595 0.0014077016 -0.008380622 -0.003919965
0001c0 46 05 e8 bc a4 14 2f bc e3 a4 39 bb 60 8d 59 bc
       -0.028322827 -0.010686073 -0.002832704 -0.013278335
0001d0 15 de 08 bc 9d c2 8a bc 33 de d0 bc 7e 14 86 bc
       -0.00835373 -0.016938502 -0.025496578 -0.016367193
0001e0 3c 76 48 bc f8 3b a3 bc 24 f2 36 bb f9 40 b2 bc
       -0.0122352205 -0.019926056 -0.0027915323 -0.021759497
0001f0 ec 1f 47 bc 59 7f 1f 3b 97 dc 0f bd 89 f0 9f bb
       -0.012153607 0.002433738 -0.03512248 -0.004880969
000200 c8 16 c1 bb b1 6c 96 bc 14 c4 b0 bc 3f d8 80 bc
       -0.0058926083 -0.018362375 -0.021577872 -0.015728114
000210 c2 75 85 bc 17 ed 77 bc 50 cb 2f bd 48 07 f0 bc
       -0.016291503 -0.01513221 -0.042918503 -0.029300347
000220 b2 0b 29 bc aa 25 d2 bc f6 05 14 bc 91 be 70 bb
       -0.01031773 -0.025652725 -0.009034624 -0.003673468
000230 e8 a8 d1 bc 6d 36 1c bd 84 01 61 bc 2d 89 ba bc
       -0.025593236 -0.038137842 -0.0137332715 -0.022770489
000240 06 63 8e 39 8a d1 17 3a d8 15 39 bb b5 e4 62 ba
       0.0002715813 0.00057914166 -0.002824178 -0.0008655296
000250 c3 fc 0d bd 3d 31 e3 bb c0 43 23 bc 83 eb 0b bc
       -0.03466488 -0.00693336 -0.009964883 -0.008540037
000260 c7 62 05 bc b5 76 9a bc b7 1b 79 bc e7 47 15 bc
       -0.008141226 -0.018855432 -0.015204362 -0.009111381
000270 07 1a 92 bc cc 3e 54 bd 30 4c 5a bc e1 2c da bc
       -0.017834676 -0.0518177 -0.013323829 -0.026632728
000280 23 3d d0 bc b1 1d bf bc 53 de 95 3d 03 ed 7e 3d
       -0.025419777 -0.023329588 0.073177956 0.06223775
000290 4a a7 12 3d 36 7d 7d 3d 04 c4 64 bd 9b 14 7d 3c
       0.03580407 0.06188699 -0.055850998 0.015446807
0002a0 cd d4 ea 3c f7 26 d0 bc 1c 2b 98 bc ba e0 c2 ba
       0.028665924 -0.025409205 -0.018575244 -0.0014867999
0002b0 96 03 0a bc 04 1c 0b bc 2e 04 db ba 3c 4c 27 bb
       -0.0084237065 -0.008490566 -0.001670962 -0.0025527617
0002c0 f2 23 31 bc 18 0d bf 3b ec c8 35 bc 9c f8 f9 bc
       -0.010811793 0.0058304183 -0.011095267 -0.030514054
0002d0 0b fa 5b bc 2a 8a c4 bc e2 9b 67 bb 09 23 6d bc
       -0.013426314 -0.023991663 -0.0035340716 -0.014473685
0002e0 48 85 c4 bb 34 62 dd ba ba 2e 32 bb b7 e8 7e bc
       -0.0059973337 -0.0016890229 -0.0027188496 -0.015558413
0002f0 15 6f d1 bc a8 97 85 3a 51 7c 8c bc c5 b5 2f bc
       -0.025565663 0.0010192292 -0.017149122 -0.01072449
000300 9f 35 3f 3c ab 4d b6 bc 43 d1 86 bc 4a f2 f6 bb
       0.011670499 -0.022253832 -0.016457206 -0.0075362073
000310 47 ad 99 bc 5b 6d 51 bd bb 7b 31 3d 80 55 2a 3d
       -0.018759383 -0.05112968 0.04333089 0.041585445
000320 f6 38 37 3d 60 69 0a 3d 44 1c 08 3d f1 be ec 3b
       0.044732057 0.0337919 0.03323008 0.0072249104
000330 ed da dc bb ba d3 73 3c f7 b3 44 3c 56 86 95 bd
       -0.006739965 0.0148820225 0.012005798 -0.07301013
000340 f7 7c 71 bd 13 86 90 bc 1a db 38 bc ac f9 78 bc
       -0.058957066 -0.017642057 -0.011282707 -0.015196245
000350 15 5f ba bc 68 02 c2 3c b7 db 06 3d 1e 85 8f bc
       -0.022750417 0.023682788 0.03292438 -0.01751953
000360 13 d1 3a 3c 0b a6 25 bc 03 7b 8d 3c b8 f5 f4 3a
       0.011402386 -0.0101103885 0.01727057 0.0018688953
000370 3e 31 8a bc 25 30 0b bb 56 fe 54 3c fb 14 ee 39
       -0.016869184 -0.0021238413 0.013000092 0.0004541053
000380 90 94 34 3b e6 e0 0a bc 45 a4 2a bc 56 11 f3 3b
       0.002755437 -0.0084764715 -0.0104151415 0.007417838
000390 05 a7 8a bc 22 73 77 3f 66 d2 f5 3a c3 9b 3e bb
       -0.016925344 0.96660054 0.001875472 -0.002908454
0003a0 fb 6f 85 bb f2 07 63 bc 2b 8c aa ba cc 7d fd 3b
       -0.004072187 -0.013856875 -0.0013011744 0.0077359434
0003b0 8a 7f 9b 3c d0 f8 84 3a 64 e7 1e bc 06 7c 33 3c
       0.018981714 0.0010144953 -0.0096987225 0.010954862
0003c0 82 cd 47 3c f2 cc be 3c 51 17 91 3a 55 85 0c 3c
       0.012194993 0.023291085 0.0011069571 0.008576711
0003d0 16 3e d7 bb c1 3f 9d 3b 9a 53 1c 3c 81 65 14 bc
       -0.0065686805 0.00479886 0.009541417 -0.009057404
0003e0 78 1d 23 bd 3f ed f1 3c 81 74 1c 3c b2 10 b9 bb
       -0.039823025 0.029532073 0.009549261 -0.005647742
0003f0 ee 37 22 3b 83 47 8c bc c1 54 09 bd d4 7c 8f 3b
       0.0024752575 -0.017123943 -0.033528093 0.0043788943

lr.13.bn.weight f4 [24]
000000 04 a6 62 3f 13 79 8c 3f a3 d9 74 3f 5b 3f 74 3f
       0.8853457 1.0974449 0.9564459 0.9540917
000010 7d 7f 78 3f 34 e6 86 3f 8b 87 81 3f a2 05 71 3f
       0.9706953 1.0539002 1.011949 0.9414922
000020 5c 26 7d 3f b8 bd 5f 3f 29 70 4c 3f 94 19 57 3f
       0.98886657 0.8739886 0.7985864 0.84023404
000030 1d b6 61 3f 55 bb 51 3f fe 96 86 3f 54 c2 63 3f
       0.8816851 0.8192647 1.0514829 0.88968396
000040 67 63 6a 3f 06 6b 73 3f df 5b 82 3f af 89 85 3f
       0.91557926 0.9508518 1.0184287 1.0432643
000050 8e 4f 86 3f 6c 00 81 3f 16 f6 7a 3f 21 a4 5f 3f
       1.0493028 1.0078254 0.9803175 0.87359816

lr.13.bn.bias f4 [24]
000000 9c 7d b5 bd 1d 7d 5c bd 3e 92 2a bc 91 8e a2 3d
       -0.08861849 -0.053830255 -0.010410843 0.07937349
000010 9c 2d bc 3c 3c 84 55 3d 55 91 5c bd b5 55 1d bd
       0.022970967 0.05212806 -0.053849537 -0.038411815
000020 bc 20 4e bd bb f5 12 3d 41 10 3c bd e3 9d 58 bd
       -0.050324187 0.035878878 -0.04591394 -0.052884948
000030 23 97 fa bb d8 65 67 bd 31 47 3d bd 53 09 93 bd
       -0.0076474114 -0.05649361 -0.04621047 -0.07179513
000040 41 08 66 bc 20 0a 26 bc 20 0e af bb f4 97 30 bd
       -0.014040054 -0.01013425 -0.00534226 -0.043113664
000050 21 08 36 bd 97 30 33 bd ee 37 26 3d 29 c2 f0 3c
       -0.044441346 -0.04374751 0.040580682 0.029389458

lr.13.bn.running_mean f4 [24]
000000 ab 46 89 bd 2e f3 d4 3e 64 27 3f 3f c9 e5 04 3c
       -0.06702932 0.4159178 0.7466948 0.008111426
000010 15 6d 26 bd a6 7e 88 bd 91 6e 99 3d 79 1b 50 3e
       -0.040631372 -0.06664781 0.07491792 0.2032298
000020 aa 4f 14 bc 69 ba 39 bd 2f 02 c5 bc fc c4 2d bd
       -0.0090521965 -0.04534379 -0.024048893 -0.042424187
000030 64 de 10 bd 04 ab d7 3c 8f 98 b6 bc 06 f5 0c bc
       -0.03536834 0.026326664 -0.022289542 -0.00860334
000040 e7 ef 84 bd 87 5c 23 bc 31 71 82 bc 1e 92 f6 3d
       -0.0649107 -0.009970791 -0.015923114 0.120395884
000050 73 a9 14 3e 50 64 bb 3a 38 e0 cb bb 8b 01 34 bd
       0.14517765 0.0014296863 -0.0062217973 -0.043946784

lr.13.bn.running_var f4 [24]
000000 09 69 ae 3b f2 10 83 3c d7 52 8f 3d ea d8 b3 3b
       0.0053225798 0.015999291 0.06998222 0.0054885047
000010 16 37 93 3b 66 8c 77 3b 9e 61 0d 3a 61 d1 d3 3b
       0.0044926507 0.0037772893 0.0005393269 0.006464169
000020 84 9c bd 39 fb d9 be 3b 5d 16 d9 3b e2 5f 28 3b
       0.00036165502 0.005824325 0.0066249804 0.0025691916
000030 f3 ab 7e 3a fc ef e5 3a 0b 9a 16 39 88 1e 13 3b
       0.00097149535 0.0017542834 0.000143625 0.0022448618
000040 92 2f d2 3a 97 d6 8d 3a e6 ec 36 39 96 b8 09 3b
       0.0016035906 0.0010821399 0.00017445124 0.0021014563
000050 19 95 de 3a b0 c6 0a 3b 82 72 17 3b c7 1d 1b 3b
       0.001698169 0.0021175556 0.0023109023 0.0023668872
